model.pkl (torch_old, 7584 bytes, 3 tensors)

weight f4 [10, 1]
0	0xbd3664e0	-0.044529796
1	0xbf0782da	-0.5293404
2	0xbf5a6fd3	-0.8532688
3	0xbf1d87e2	-0.61535466
4	0xbf190cf4	-0.5978539
5	0x3e80db08	0.25167108
6	0xbf8d71e2	-1.1050379
7	0x3f81d855	1.0144144
8	0x3cd1a900	0.02559328
9	0xbf124715	-0.5713971

bias f4 [10]
0	0xbf1eeb84	-0.6207812
1	0xbb8fb6a8	-0.004385788
2	0x3cbbce13	0.022925412
3	0xbf3745b8	-0.7159076
4	0xbf7af4a4	-0.9802954
5	0xbed8816c	-0.4228624
6	0xbe4e475e	-0.20144412
7	0x3e998a0e	0.2998814
8	0xbe4911e8	-0.19635737
9	0xbf1193d4	-0.5686619

weight f4 [1, 10]
0	0xbd76de08	-0.06027034
1	0x3ebbc90f	0.36676833
2	0x3f0ec31d	0.5576647
3	0xbb80c680	-0.003929913
4	0x3e42a166	0.19006881
5	0x3e48bd4a	0.19603458
6	0x3f2261ef	0.63430685
7	0x3f4f4681	0.80966955
8	0x3b98d440	0.004663974
9	0xbd85aa73	-0.06526651
